…
   "execution_count": 58,
   "metadata": {
    "scrolled": false
   },
   "outputs": [
    {
     "name": "stdout",
     "output_type": "stream",
     "text": [
      "Model: \"model_4\"\n",
      "_________________________________________________________________\n",
      "Layer (type)                 Output Shape              Param #   \n",
      "=================================================================\n",
      "input_4 (InputLayer)         [(None, 100, 100, 3)]     0         \n",
      "_________________________________________________________________\n",
      "conv2d_4 (Conv2D)            (None, 100, 100, 16)      448       \n",
      "_________________________________________________________________\n",
      "conv2d_5 (Conv2D)            (None, 100, 100, 32)      4640      \n",
      "_________________________________________________________________\n",
      "conv2d_6 (Conv2D)            (None, 100, 100, 64)      18496     \n",
      "_________________________________________________________________\n",
      "flatten_1 (Flatten)          (None, 640000)            0         \n",
      "_________________________________________________________________\n",
      "dense_3 (Dense)              (None, 256)               163840256 \n",
      "_________________________________________________________________\n",
      "dense_4 (Dense)              (None, 64)                16448     \n",
      "_________________________________________________________________\n",
      "dense_5 (Dense)              (None, 9)                 585       \n",
      "=================================================================\n",
      "Total params: 163,880,873\n",
      "Trainable params: 163,880,873\n",
      "Non-trainable params: 0\n",
      "_________________________________________________________________\n"
     ]
    }
   ],
   "source": [
    "model.summary()"
   ]
  },
  {
   "cell_type": "markdown",
   "metadata": {},
   "source": [
…
